nc: 80
scales:
  n: [0.50, 0.25, 1024]

backbone:
  - [-1, 1, Conv, [64, 3, 2]]
  - [-1, 1, Conv, [128, 3, 2]]
  - [-1, 2, C3k2UltraPro, [256]]

  - [-1, 2, C3k2UltraPro, [256]]

  - [-1, 1, Conv, [256, 3, 2]]
  - [-1, 2, C3k2UltraPro, [512]]
  - [-1, 1, OptimizedMOEImproved, [512, 4, 2]]

  - [-1, 1, Conv, [512, 3, 2]]
  - [-1, 4, A2C2f, [512, True, 4]]

  - [-1, 1, OptimizedMOEImproved, [512, 4, 2]]

  - [-1, 1, Conv, [1024, 3, 2]]
  - [-1, 4, A2C2f, [1024, True, 1]]

  - [-1, 1, OptimizedMOEImproved, [1024, 8, 2]]

head:
  - [-1, 1, nn.Upsample, [None, 2, "nearest"]]
  - [[-1, 9], 1, Concat, [1]]
  - [-1, 2, C3k2UltraPro, [512]]

  - [-1, 1, nn.Upsample, [None, 2, "nearest"]]
  - [[-1, 6], 1, Concat, [1]]
  - [-1, 2, C3k2UltraPro, [256]]

  - [-1, 1, Conv, [256, 3, 2]]
  - [[-1, 15], 1, Concat, [1]]
  - [-1, 2, C3k2UltraPro, [512]]

  - [-1, 1, Conv, [512, 3, 2]]
  - [[-1, 12], 1, Concat, [1]]
  - [-1, 2, C3k2UltraPro, [512]]

  - [[18, 21, 24], 1, Detect, [nc]]
